model.pth (torch, 4475 bytes, 4 tensors)

weight f4 [8, 4, 3, 3]
0	0xbdfa1430	-0.12210882
1	0xbdf524a3	-0.119698785
2	0xbdbb014e	-0.09131108
3	0x3e4e01a2	0.2011781
4	0x3eb106a3	0.34575376
5	0x3eab858e	0.33500332
6	0xbce4c616	-0.027926486
7	0xbca9cdd6	-0.020728033
8	0x3d4bfa50	0.049799263
9	0xbd9c36d8	-0.07627648
10	0xbd5c2be0	-0.05375278
11	0x3d9ec9be	0.07753323
12	0x3ea70c39	0.32626513
13	0x3eb5e32d	0.35524884
14	0x3e42259c	0.1895966
15	0xbe0343e4	-0.12818867
16	0xbd1394ab	-0.036030453
17	0xbdc3f446	-0.09568076
18	0xbd92d3d0	-0.07169306
19	0x3aedf356	0.0018154185
20	0xbcda42d6	-0.026643198
21	0x3dbe22ee	0.09284006
22	0xbbfab3ab	-0.0076508126
23	0x3dca8d18	0.09890193
24	0xbd762d1b	-0.06010161
25	0x3e281216	0.16413149
26	0x3dca1b20	0.09868455
27	0xbdbdb206	-0.09262471
28	0x3de50d9b	0.11184236
29	0xbdb6f37e	-0.08933161
30	0x3d5aff7b	0.0534663
31	0xbd89f79e	-0.06736682
32	0x3d510ce6	0.05103769
33	0xbd84abd0	-0.06478083
34	0xbcdaca76	-0.026707869
35	0xbba18256	-0.0049288673
36	0xbe13f60c	-0.14449328
37	0x3e02b138	0.12762916
38	0xbdcfdbae	-0.101493225
39	0x3ded8289	0.11597163
40	0x3daefa73	0.08543863
41	0x3d4527ce	0.048133664
42	0x3d23e840	0.040016413
43	0xbd4cda3b	-0.05001281
44	0x3d95e9a6	0.073199555
45	0xbd459006	-0.048233055
46	0x3cc55796	0.024089616
47	0x3e1d019e	0.15332648
48	0x3e0ece47	0.13945876
49	0x3df6c3b0	0.12049043
50	0x3d456511	0.048192088
51	0xbdf46d80	-0.11934948
52	0xbdedb8a3	-0.11607482
53	0x3bda9856	0.006670992
54	0xbd287a56	-0.041132294
55	0xbd57e9bb	-0.052713137
56	0x3c8b4aab	0.017003378
57	0xbdc15736	-0.09440462
58	0x3e1eabb0	0.15495181
59	0xbcd16ad6	-0.025563639
60	0xbdc38b36	-0.09548037
61	0x3c81620b	0.01579382
62	0xbcc1a440	-0.02363789
63	0x3c2342ab	0.009964625
64	0xbdcd9ec3	-0.10040047
65	0xbd0d68c0	-0.034523726
66	0x3dce2190	0.10064995
67	0x3c849b80	0.01618743
68	0xbdc66206	-0.09686665
69	0xbe0fe13e	-0.14050767
70	0xbc5e4b56	-0.013567766
71	0xbc8256b6	-0.015910488
72	0xbc8926eb	-0.01674219
73	0xbe1fd14c	-0.15607184
74	0xbe154d23	-0.14580207
75	0x3d013c66	0.03155174
76	0xbd2b8d96	-0.041883074
77	0xbdd10c26	-0.10207395
78	0x3da1e100	0.079042435
79	0x3ca73b00	0.020413876
80	0x3de3bd53	0.11120095
81	0x3ddb9a73	0.10722818
82	0x3cc33756	0.023830097
83	0xbde7dd9e	-0.11321567
84	0xbe04d4f0	-0.12971854
85	0xbe1797e2	-0.14804032
86	0xbd36a51b	-0.04459105
87	0xbdf4d70e	-0.11955081
88	0xbde81a53	-0.11333146
89	0x3e09b636	0.13448414
90	0x3cc05a96	0.023480695
91	0x3e24a043	0.1607676
92	0x3d8a63e0	0.06757331
93	0x3dfb8336	0.12280886
94	0xbc6808d6	-0.014162263
95	0xbcc93bd6	-0.024564665
96	0xbe004074	-0.12524587
97	0xbe1db197	-0.15399776
98	0xbdf0919e	-0.11746524
99	0xbc4c9616	-0.012486955
100	0xbe1337df	-0.14376782
101	0x3cb9ceab	0.022681555
102	0xbdf3a138	-0.118959844
103	0x3e236fc4	0.15960604
104	0x3d10a8f0	0.03531736
105	0x3c69dac0	0.0142733455
106	0x3d34cb20	0.044139028
107	0x3e19e7c6	0.15029821
108	0x3d99bd58	0.075068176
109	0x3ca9c656	0.020724457
110	0xbb0efa56	-0.0021816692
111	0xbe151bc6	-0.14561376
112	0xbdb63058	-0.088959396
113	0x3dde6a7b	0.10860153
114	0xbd5b1c50	-0.053493798
115	0xbc8f3456	-0.01748101
116	0xbd394abb	-0.045237284
117	0x3d497506	0.049183868
118	0xbdcd1256	-0.10013263
119	0xbc996d40	-0.018728852
120	0xbdbd377e	-0.092391
121	0x3e2a668a	0.16640678
122	0x3e1fa552	0.15590408
123	0x3de9c5fb	0.11414715
124	0x3bfc242b	0.0076947412
125	0x3def06ab	0.11671194
126	0xbdbe8adb	-0.09303828
127	0xbe06609b	-0.1312279
128	0x3dbd13f6	0.09232323
129	0xbe0af077	-0.13568293
130	0xbd82442e	-0.063606605
131	0x3df4d2bb	0.11954256
132	0xbd8d7a4b	-0.06908091
133	0xbe12ac66	-0.14323577
134	0x3ded84e0	0.115976095
135	0xbe0e6556	-0.13905844
136	0xbb399656	-0.0028318367
137	0xbd1973bb	-0.037463885
138	0xbda8ea30	-0.08247793
139	0xbdc7b4b0	-0.0975126
140	0x3dd4e9db	0.10396167
141	0xbd3e9e7b	-0.046537858
142	0x3d24507b	0.040115815
143	0x3dc0413b	0.09387442
144	0x3da3b723	0.07993915
145	0xbdae2db6	-0.085048124
146	0x3e06d694	0.13167793
147	0x3d2e7572	0.042592473
148	0x3e5b4837	0.21414267
149	0x3e523f4b	0.20531957
150	0x3dc124de	0.0943086
151	0x3e09c987	0.13455783
152	0xbe088518	-0.13332021
153	0x3e1c9b4e	0.15293619
154	0x3d9f8106	0.07788281
155	0xbdf21cb6	-0.118218824
156	0x3e4fe056	0.20300421
157	0x3e4d8a60	0.20072317
158	0x3e89df67	0.26928255
159	0x3d850093	0.0649425
160	0x3e234f74	0.15948278
161	0x3df6ced0	0.12051165
162	0xbd0fe220	-0.03512776
163	0xbd712526	-0.058873318
164	0xbca545cb	-0.020174881
165	0x3c06bfd6	0.008224448
166	0x3dad53c6	0.08463244
167	0x3dc48c4e	0.095970735
168	0x3c9c9deb	0.01911827
169	0x3e0ee382	0.13953975
170	0x3d8f05d8	0.069835365
171	0xbdd9c038	-0.10632366
172	0xbce5fbc0	-0.028074145
173	0x3d2a60d0	0.041596234
174	0xbe150948	-0.14554322
175	0xbc899d16	-0.016798537
176	0xbdfd0a3e	-0.12355469
177	0x3d2c51fb	0.04207037
178	0x3dd4c57b	0.10389229
179	0x3d910c08	0.07082373
180	0x3ccf642b	0.025316318
181	0xbd60fb40	-0.05492711
182	0x3d39b64b	0.045339864
183	0x3e75756a	0.23970571
184	0x3e77d06f	0.24200605
185	0x3e529cc2	0.20567611
186	0xbc8ecf0b	-0.01743271
187	0xbe19a330	-0.15003657
188	0xbd8b0248	-0.067875445
189	0x3db05948	0.08610779
190	0x3d488216	0.048952185
191	0x3d7bdc56	0.061489426
192	0x3e6ed318	0.23322713
193	0x3e721438	0.23640525
194	0x3e87aef1	0.26500657
195	0x3d874e6e	0.06606756
196	0xbddc80ab	-0.10766729
197	0xbdf14cd0	-0.11782229
198	0xbdbfc3a8	-0.0936349
199	0x3d38a7e6	0.045081995
200	0x3d3d6060	0.04623449
201	0x3b306356	0.0026914678
202	0xbde42a5e	-0.111408934
203	0xbd8d097e	-0.06886576
204	0xbdec5fa8	-0.115416825
205	0xbe05f46a	-0.13081518
206	0xbe07611a	-0.13220635
207	0x3ce7ab8b	0.02828004
208	0x3e107b28	0.1410948
209	0x3e122dee	0.14275333
210	0xbdc905fb	-0.09815594
211	0xbdd4a3a0	-0.103827715
212	0x3e14a9e6	0.14517936
213	0x3e140560	0.14455175
214	0x3d69df50	0.057097733
215	0x3de87066	0.11349563
216	0x3dd24063	0.10266187
217	0x3e187d4a	0.14891544
218	0x3e1e3652	0.15450409
219	0xbd4859e6	-0.04891386
220	0x3e0ec898	0.13943708
221	0x3dc0e143	0.09417965
222	0x3e26e0a0	0.16296625
223	0x3d12f1d0	0.03587514
224	0xbcb43840	-0.021999478
225	0x3cdc0cb6	0.02686153
226	0x3e0d0ac0	0.13773632
227	0xbc174c56	-0.0092345085
228	0x3da980eb	0.08276542
229	0xbcc61dc0	-0.024184108
230	0x3de8fef6	0.11376755
231	0xbd52ced0	-0.051466763
232	0xbe2348d7	-0.15945755
233	0xbd7deca6	-0.061993264
234	0xbdc64cdb	-0.09682628
235	0x3df7beab	0.12096914
236	0x3ca8ce00	0.020606041
237	0xbcd952ab	-0.026528677
238	0x3df1450e	0.11780749
239	0x3d06929b	0.032854658
240	0x3dd8b038	0.10580486
241	0xbdd89e76	-0.10577099
242	0x3d2a6dd6	0.041608654
243	0x3e20bc30	0.15696788
244	0x3e075d47	0.13219176
245	0x3d4928bb	0.04911111
246	0xbdc9947e	-0.09842776
247	0x3e06b7d2	0.1315606
248	0x3e13af6f	0.14422391
249	0xbd994246	-0.07483344
250	0xbe02569c	-0.12728351
251	0x3d51a57b	0.051183205
252	0xbced8da0	-0.028998196
253	0xbd337810	-0.043815672
254	0xbdd70038	-0.104980886
255	0x3dc2dc6e	0.095147

bias f4 [8]
0	0x3e67995b	0.22617094
1	0x3d789159	0.06068549
2	0x3e19235f	0.14954899
3	0x3e0d6022	0.13806203
4	0x3e268de6	0.16265067
5	0x3e5e190d	0.21689244
6	0xbda8102e	-0.08206211
7	0xbd2d26eb	-0.042273443

weight f4 [2, 4, 3, 3]
0	0xbdd595fe	-0.10428999
1	0xbd9bbff8	-0.076049745
2	0x3e2568d8	0.16153276
3	0x3e072362	0.13197091
4	0x3e8812df	0.26576898
5	0x3e9737d3	0.29534778
6	0x3df24690	0.11829865
7	0x3d97bed6	0.07409446
8	0x3d43484b	0.047676366
9	0xbdaf97b0	-0.08573854
10	0x3e04022e	0.12891456
11	0xbb477f56	-0.0030440888
12	0x3e9041a5	0.28175083
13	0x3e93a220	0.2883463
14	0xbc3255b3	-0.01088469
15	0x3e13d4ec	0.14436692
16	0x3d67feb0	0.056639373
17	0x3d001840	0.031273127
18	0x3dc5934b	0.096472345
19	0x3df8ba33	0.1214489
20	0xbdb2be16	-0.08727662
21	0x3e04c53c	0.12965864
22	0x3ea7ddb4	0.32786334
23	0x3e3fbf69	0.18725361
24	0x3d141e90	0.03616196
25	0xbe131146	-0.14362058
26	0x3d847e8e	0.06469451
27	0x3bb08e00	0.0053880215
28	0x3dbea8b0	0.09309518
29	0xbc89fcd6	-0.016844194
30	0x3da341a1	0.07971502
31	0x3eab0eeb	0.3340982
32	0x3e56820c	0.20948046
33	0xbe22c97a	-0.1589717
34	0xbd73cb3b	-0.059519988
35	0xbe119c74	-0.14219838
36	0xbcf74c2b	-0.030187687
37	0x3bfa982b	0.0076475344
38	0x3e1da81b	0.15396158
39	0x3e3b3de0	0.18285322
40	0x3e1d2f86	0.1535016
41	0x3eb2c7a4	0.3491794
42	0x3d55d4b6	0.05220481
43	0xbdcc2c6e	-0.09969412
44	0x3d9b62d8	0.07587212
45	0xbd292af6	-0.041300736
46	0x3dc5bf16	0.096555874
47	0x3d844c3e	0.064598545
48	0x3dd7b861	0.10533214
49	0x3de21a86	0.11040215
50	0x3ce85252	0.028359566
51	0x3a670556	0.0008812746
52	0xbd8005ee	-0.06251131
53	0x3df1c110	0.11804402
54	0x3cc22116	0.023697417
55	0x3e1e1aea	0.15439954
56	0x3dd83f8e	0.10558997
57	0x3b643050	0.0034818836
58	0x3e601333	0.21882324
59	0x3dabdf28	0.08392173
60	0x3dd0b643	0.10191014
61	0xbc307c40	-0.010771811
62	0x3d6a3beb	0.05718605
63	0x3d325acb	0.04354362
64	0xbd74a04b	-0.05972318
65	0x3d880386	0.06641297
66	0x3e3b9e10	0.18322015
67	0x3e695d36	0.22789463
68	0x3dff155e	0.12455247
69	0xbe2458b6	-0.16049466
70	0x3dd30ae8	0.103048146
71	0x3d9a287e	0.075272545

bias f4 [2]
0	0x3d27cce6	0.04096689
1	0x3e661cd1	0.2247193
