model.pth (torch, 6267 bytes, 4 tensors)

weight f4 [12, 6, 3, 3]
000000 7d 6d 64 3d 70 6c 8f bd 57 97 12 be bb 52 f3 3d
       0.05576848 -0.07003105 -0.14315544 0.11881014
000010 c6 06 1b 3d 73 22 5d bd a9 de c8 bd d5 6b f6 3d
       0.037848257 -0.05398793 -0.09808094 0.12032286
000020 de 5b d4 3d 57 80 c3 bd 89 4c 2b 3d 1f 47 ed bd
       0.10369085 -0.09545963 0.041821036 -0.11585831
000030 d6 da 34 3d 7c 57 41 3e b9 a1 2a bd 0c 10 c6 bd
       0.04415401 0.18881029 -0.041658137 -0.096710294
000040 86 2f ed bd 13 4f ee bd f6 ac a8 3d 0a dc 24 3e
       -0.1158133 -0.11636176 0.08236115 0.16099563
000050 b2 13 c8 3d 95 d4 02 3e 23 f3 1a 3e fe aa 57 3d
       0.097693816 0.12776406 0.15131812 0.052653305
000060 bc 7b d5 3d 55 b3 59 3e 56 28 b3 3c 8d 63 81 bd
       0.10423991 0.21259816 0.02186982 -0.06317816
000070 d2 68 42 3d 52 1a 93 3d 10 72 3d 3d b3 d4 f9 bd
       0.047463246 0.071827546 0.046251357 -0.12198772
000080 27 6d 93 3d ce 78 d0 3b 1c 52 9e 3c 0c 51 17 bc
       0.071985535 0.0063620573 0.019326262 -0.009235632
000090 ce bf 35 3d 69 57 26 bd 29 3d ab ba 88 35 8f 3d
       0.044372372 -0.040610705 -0.0013064492 0.06992632
0000a0 14 b3 73 3c fe 24 c1 3d 04 45 a5 3d a2 b7 ab 3b
       0.0148742385 0.09430884 0.08069804 0.0052403966
0000b0 9e 5d 70 3d be fd 83 bd 41 45 6f bd ec 2b 9b 3b
       0.05868303 -0.06444882 -0.058415655 0.0047354605
0000c0 de 2f ba bd e1 06 a2 3c 4c 61 e2 3b 9c 77 e4 bd
       -0.09091161 0.01977867 0.0069085713 -0.11155626
0000d0 11 28 eb bd 8f dd de bd 79 f4 11 be 87 7e 2e bd
       -0.114822514 -0.10882103 -0.14253415 -0.042601135
0000e0 5c 22 16 be a6 2a 3b 3d 5e 9b 79 3c 1e b7 99 bd
       -0.14661545 0.04569497 0.015234796 -0.0750563
0000f0 f8 f5 55 be 7d 39 c1 3c 5a 48 be 3b 9a 0d 43 3e
       -0.20894611 0.023586983 0.005806965 0.19048157
000100 ee 18 88 3e dd fe 56 bd 06 60 2c 3e 49 98 ce 3e
       0.2658152 -0.05248915 0.16833505 0.4035056
000110 e5 c1 95 3e 71 48 71 3d f9 67 90 3e 14 5e a3 3d
       0.29249492 0.058906976 0.28204325 0.07976928
000120 62 d3 e9 bd 9c b8 c9 3d e2 e4 47 3c 5b 01 85 bc
       -0.11417271 0.098496646 0.012200566 -0.016235998
000130 52 62 18 3e 58 5c 35 3d fb 31 36 bd c0 db 3d bd
       0.14881256 0.04427752 -0.04448126 -0.046352148
000140 01 a2 cb bd 78 08 f7 bd 42 c5 99 3d 9f 55 e4 3d
       -0.09943009 -0.12062162 0.07508327 0.111491434
000150 04 26 eb 3d 75 34 a2 bd 93 41 06 bd e9 41 cd 3a
       0.1148186 -0.07920162 -0.03277738 0.0015659902
000160 89 b1 c0 3d c2 d2 d5 3d 1f e9 23 bb 91 42 a0 3d
       0.09408862 0.104405895 -0.0025010777 0.078251965
000170 79 5b 09 be 96 d1 01 be d2 f2 be bd 81 98 ca bd
       -0.134138 -0.12677607 -0.09323658 -0.09892369
000180 b3 6f aa 3d 3f 19 36 bd c1 32 3e bc 30 c1 12 bb
       0.08322086 -0.04445767 -0.01160878 -0.002239298
000190 0d 59 e6 3d 87 a1 99 bd 1b ba af bc 4c 9a 97 3c
       0.11247454 -0.07501512 -0.021451047 0.018506192
0001a0 b6 6b dd 3d 9d 64 35 bc ae 49 ee 3d 2f 44 31 bd
       0.1081156 -0.011071351 0.11635147 -0.043277916
0001b0 aa a1 16 3e f9 9f 5f 3e 21 a3 06 3e 70 6f 6f 3e
       0.14710107 0.21838368 0.13148166 0.23382354
0001c0 ba 03 f7 3d f1 7f 7f 3e c4 90 23 3e 19 a0 b4 3c
       0.12061258 0.2495115 0.15973192 0.022048997
0001d0 c4 ff cb 3d 90 05 00 be 81 43 f2 3d 01 83 18 be
       0.09960893 -0.12502122 0.118292816 -0.14893724
0001e0 7e 78 79 3d 91 e6 ce 3d 81 3b 3b bd 2f 31 4c be
       0.060905926 0.10102571 -0.045711044 -0.19940637
0001f0 95 56 ef bd bf 67 8b bd 68 1c 29 bd b5 4c c9 bc
       -0.11686436 -0.06806897 -0.041286856 -0.02457271
000200 0d 3e bf bb 65 cc c9 3d cb fd 6b 3e 52 fc 9f bd
       -0.0058362545 0.09853438 0.23046033 -0.07811798
000210 85 10 c0 3d f3 8d 22 3d 07 9b 29 bc 16 f7 ff bc
       0.09378151 0.039686155 -0.010351903 -0.03124575
000220 58 88 ee bd 87 a3 0a bd 29 79 4d bc 72 0b 7d bd
       -0.11647099 -0.033847358 -0.012541094 -0.061778493
000230 d9 f2 07 be 50 57 77 3c 59 8d cf bc b1 06 07 3d
       -0.13276233 0.0150965005 -0.025335955 0.032965366
000240 8a 91 df 3d 30 ea b4 bd f1 24 53 bd bd 38 ba bd
       0.10916431 -0.0883373 -0.051548902 -0.09092853
000250 d9 b0 c3 3d 6a a1 fe 3c 5e 7f e7 3c 32 ed dd 3c
       0.095552154 0.031082828 0.028258976 0.027090643
000260 ba e9 e0 3d 1e d0 ef 3d 1e 62 e1 3d ff bd 95 bd
       0.1098208 0.11709617 0.110050425 -0.073116295
000270 4f 1e d0 bc 9c de b5 3c 14 6d f0 3c 67 e9 bc 3c
       -0.025405077 0.022200875 0.029348888 0.023060514
000280 40 c0 1b bd e6 31 93 3c 3e 09 7e bd e9 30 93 bb
       -0.03802514 0.01796813 -0.062020533 -0.0044919145
000290 70 6c fd 3c a2 a8 f3 3d b0 74 e8 bc 6f a2 d1 bd
       0.030935496 0.118973985 -0.028375953 -0.1023606
0002a0 ba 1d ed 3c cf 11 96 bd d7 1e 42 3d 2a 65 09 be
       0.028944839 -0.073276155 0.047392692 -0.13417497
0002b0 f4 67 5a 3d 3a 18 85 3d 45 ff 3e 3d 48 39 13 3c
       0.053321794 0.064987615 0.046630163 0.008985825
0002c0 62 77 8a bd 09 c2 00 bc 9d 7c 05 bd f7 35 de 3c
       -0.06761052 -0.007858762 -0.032589544 0.027125342
0002d0 a2 ee e3 3d 1b 3e 30 bd 3d de ba bd b8 e8 a4 bd
       0.111295 -0.04302798 -0.0912442 -0.080522
0002e0 4a f3 a1 3d d9 da 4c 3d 85 6a 09 bd a6 d1 59 bd
       0.07907732 0.050013397 -0.03354885 -0.053178452
0002f0 f8 85 a0 3d e7 0f 05 be 47 81 d5 bd fb 1f 09 bc
       0.078380525 -0.12994348 -0.10425048 -0.008369441
000300 0e 0f a1 bd f9 95 5b bd f2 7a 85 bd 6a 75 cb bd
       -0.078641996 -0.053609822 -0.065175906 -0.09934504
000310 a8 15 48 3d 49 2a ee bd 34 3a cb bd ac 4b 88 bd
       0.048848778 -0.11629159 -0.09923211 -0.06655058
000320 83 74 a5 3c 39 2c b8 bd 1c 5d bf 3d d7 b4 c8 3d
       0.020197159 -0.0899281 0.09343931 0.098001175
000330 0f 68 87 3d 72 19 b1 bd 13 36 df 3c f8 cd e1 3d
       0.066116445 -0.086474314 0.027247464 0.110256135
000340 ce 1d fb bc 44 a4 3e bd 33 09 eb 3d fd b5 c8 3d
       -0.03065386 -0.046543375 0.11476364 0.098003365
000350 70 c6 87 3d e8 28 a3 3d 71 98 be bd a2 22 db 3d
       0.06629646 0.079667866 -0.0930642 0.10699965
000360 dd 45 05 be eb f2 e0 3d 17 83 a8 bc f0 70 43 bc
       -0.13014932 0.10983833 -0.020570321 -0.011928782
000370 f4 22 fd 3c 33 a9 d9 bd ac 21 d5 bc 8e 2d ce bd
       0.030900456 -0.10627975 -0.026017033 -0.100672826
000380 9d 96 81 bd 73 3f c3 bd 6a 9c 04 3e 9c 5b d5 3d
       -0.06327555 -0.09533586 0.12950292 0.10417864
000390 8c cd 04 3e ca 14 42 3d 0e d4 e9 3d fb ee 66 bb
       0.12969035 0.047383107 0.11417399 -0.0035237658
0003a0 6c 7a a2 3d c2 a8 08 be d0 7e 09 be f3 20 09 3e
       0.07933506 -0.13345626 -0.13427281 0.13391475
0003b0 44 82 b3 bd b9 bf 01 be c5 85 f9 bd 23 28 05 3d
       -0.087650806 -0.12670793 -0.12183718 0.03250898
0003c0 68 03 da 3d 74 d6 0d bd d7 f6 7e bd 2d 1e 8f bd
       0.10645181 -0.034628347 -0.062247124 -0.069881774
0003d0 b2 13 50 3c a1 d1 02 3e 3d a6 f8 3d dd d6 f8 3d
       0.012700008 0.1277528 0.121410824 0.12150357
0003e0 b8 da 30 3d a1 57 bd 3c 29 84 c3 3c 70 2d 08 3e
       0.043177336 0.023113074 0.02386673 0.13298583
0003f0 e8 bb 91 3b 86 d3 fd ba 61 45 11 bd 68 74 fe bd
       0.004447449 -0.0019365407 -0.035466556 -0.124245465

bias f4 [12]
000000 55 45 ef 3d ec 2c df 3d 47 7b 1f 3d 8e a8 e1 bd
       0.11683146 0.1089724 0.038935926 -0.110184774
000010 49 23 84 3c 7e b5 ff 3c f1 67 11 3e 35 6d 2e bd
       0.016130107 0.031214472 0.14199807 -0.042584617
000020 cd c0 96 3d 2c 7f 54 bd 78 4c 43 3c 63 da a2 bd
       0.073609926 -0.051879093 0.011920087 -0.0795181

weight f4 [3, 6, 3, 3]
000000 4c 9a a3 3d 29 0a 00 bc 04 60 a0 bd 72 c3 b7 3d
       0.07988414 -0.007814922 -0.078308135 0.08972825
000010 27 2f a9 3d b1 46 9f 3d f1 41 df bd eb a0 45 3d
       0.08260947 0.07777155 -0.10901249 0.048249166
000020 a5 c0 6d bd f0 04 05 3e c0 6b b1 3c 4e b9 ff 3c
       -0.05804505 0.12990165 0.021657825 0.03121629
000030 93 d9 df bd 05 1f 4f 3c 0e f1 4f be 50 98 21 3e
       -0.10930171 0.012641673 -0.20306799 0.15780759
000040 ad 74 39 3d b8 a8 75 3d 16 4e a5 bc fa cf 0d be
       0.045277286 0.059975356 -0.020178836 -0.13848868
000050 14 55 19 bd f1 e9 e6 bd 0c c8 8c bd 4d 52 dc bd
       -0.037434652 -0.112750895 -0.068740934 -0.10757885
000060 88 d2 39 bd 3a ae 58 be 34 25 b0 bc f3 99 00 3d
       -0.045366794 -0.21160212 -0.021502115 0.031396817
000070 6e ba a0 3c 20 df 0c be 0a fe cc bc 7b 86 6d 3d
       0.019620147 -0.1375699 -0.025023479 0.05798958
000080 6f 5b 24 3e 46 d4 10 be 01 71 3f 3d 25 b3 b8 bd
       0.16050504 -0.14143476 0.04673863 -0.09018544
000090 90 1d 28 3d c5 e9 1b be aa cf 0b 3e 4a 9b 75 bb
       0.041043818 -0.15225895 0.13653436 -0.0037476593
0000a0 3a 64 0b be 0c eb 08 3c 0d da 54 bd 08 ff 5f bd
       -0.13612452 0.008356821 -0.051965762 -0.054686576
0000b0 07 af ec 3d ed 4f 1d 3c 72 60 03 be fd bd 1d bd
       0.11556821 0.009601575 -0.1282976 -0.038511265
0000c0 b8 5b bc bd 55 e3 94 be c8 a8 28 be 2f 6d 1f be
       -0.091971815 -0.2907969 -0.16470635 -0.15568994
0000d0 28 17 77 be bb 09 aa bd 39 b3 14 bd 8c ad 9e 3d
       -0.24129927 -0.08302637 -0.036303733 0.07747945
0000e0 a4 8b 3d bd 8b ec 3b bd 56 c3 ef bb a4 b6 19 3e
       -0.04627575 -0.04587988 -0.007316987 0.15011078
0000f0 12 66 2d be 14 d6 1a 3e a2 9a a3 bb 43 c4 14 3e
       -0.16933468 0.15120727 -0.004992799 0.14527993
000100 d6 11 39 be c6 62 bf 3c 4f c7 80 be 4a e4 ec bd
       -0.1807321 0.023362529 -0.2515206 -0.1156698
000110 6f 03 6e be 56 96 86 bd 72 59 b2 bd 75 60 f0 3d
       -0.23243497 -0.06571643 -0.087084666 0.11737148
000120 06 88 6f 3d 10 a5 00 be b9 f5 02 3e 52 58 82 3d
       0.05847933 -0.12562966 0.12789048 0.06364502
000130 d3 2a 6f be b4 13 a5 bc 45 a9 d1 3d db b2 10 be
       -0.2335618 -0.020150997 0.10237364 -0.14130728
000140 15 aa 9e bc 4c b0 a6 bb d7 fd b0 bd fd bf a1 bd
       -0.01936821 -0.005086934 -0.08642166 -0.07897947
000150 73 e6 32 3d bf b7 f0 3d e0 81 1a ba 38 11 df bd
       0.043676805 0.11753797 -0.00058939867 -0.10891956
000160 62 4d b0 3d ca ec 2a be fa cf 8a bd 1b 8a f1 bd
       0.086085096 -0.1669189 -0.0677795 -0.1179392
000170 db 46 10 3c cd 7b 73 be 31 e3 23 be a4 72 45 be
       0.008805956 -0.23777695 -0.16004635 -0.19282013
000180 78 07 5a 3d 3b 44 11 be b5 68 51 bd 0e f4 67 bd
       0.05322978 -0.14186184 -0.051125247 -0.056629233
000190 92 5c 99 bd e7 e3 02 3e 97 56 90 bd 68 9d 2c bd
       -0.074883595 0.1278225 -0.07047766 -0.0421423
0001a0 b2 bd 14 b9 b0 5c 3d 3d 13 94 8b bd 96 72 57 bd
       -0.00014185047 0.04623097 -0.06815352 -0.052599512
0001b0 ad 52 97 3d c4 fe 35 3e 80 78 66 3d ca 6c e4 3d
       0.07388816 0.17772967 0.05626726 0.11153562
0001c0 6b 12 91 3d 16 2c 44 3e ed 61 1a 3e 68 9d e1 3d
       0.07083591 0.19157442 0.15076418 0.11016351
0001d0 ed 88 0e bc 0c de 0f 3e 70 55 7e 3d 99 db da 3d
       -0.008699638 0.14049548 0.0620932 0.10686416
0001e0 69 9f 44 bc 0d 10 1e be f3 9e 12 be e5 7a 09 3e
       -0.012000897 -0.1543581 -0.14318447 0.13425787
0001f0 08 b5 a2 bd 13 f8 25 3c ba 56 10 3e f5 cd 96 bd
       -0.07944685 0.010129946 0.14095584 -0.07363502
000200 64 d4 e1 3d be 6a a2 3c 95 eb 0a be 71 82 b7 bd
       0.110268384 0.01982629 -0.1356643 -0.089604266
000210 91 65 05 3e bd bc f0 bd 9b ac 18 3e ec 97 e6 3d
       0.13027026 -0.11754749 0.14909594 0.112594455
000220 46 2b 39 3e 58 ea c7 bd ae a1 37 3d 79 ff 6a 3e
       0.18082914 -0.097614944 0.044831924 0.22949018
000230 8f cf 0e 3e 33 dd 03 3e 15 07 4a bb fa c5 8f 3d
       0.13946365 0.1287735 -0.0030826975 0.07020183
000240 0e d2 df 3c ed 84 0a be 56 b6 07 3e f7 41 b8 bd
       0.027321842 -0.1352727 0.1325315 -0.08996957
000250 f7 b0 36 be c0 2f 76 bd f8 31 dc 3d db 1f 07 be
       -0.17840944 -0.06010413 0.10751718 -0.13195746
000260 1f c3 c7 3d 80 77 dc bd b7 6a 99 3d 36 0d 91 bd
       0.09754013 -0.1076498 0.07491057 -0.07082598
000270 f1 67 19 be 0d 81 03 be 64 73 ad bd 31 bd 8e 3d
       -0.14981057 -0.12842198 -0.08469275 0.06969679
000280 10 5f e0 bd cb c6 9e 3c
       -0.10955632 0.019381901

bias f4 [3]
000000 de 12 4a 3e b0 10 ac 3c 01 0c fc 3b
       0.1973376 0.021004051 0.0076918607
