model.pth (torch, 6267 bytes, 4 tensors)

weight f4 [12, 6, 3, 3]
000000 2e fe 16 be 2e 52 c6 3b fe e3 d6 bd 57 88 e3 3d
       -0.147454 0.006052277 -0.10492705 0.11109989
000010 80 4f a9 3b c2 1b 07 bd 6c 6b a5 bd 81 a9 66 3c
       0.005166948 -0.032985456 -0.0807713 0.014078499
000020 23 b1 05 be 00 22 01 3e a4 13 72 3d 6d 48 1e 3d
       -0.13055854 0.12610626 0.059100762 0.03864329
000030 d1 d8 f2 3d 21 8f 34 3d df 36 f3 3d fa a7 94 3c
       0.11857761 0.04408181 0.118757 0.018146504
000040 99 2a 26 3e 35 85 72 3d 32 36 ea bc 5a bc 3d 3d
       0.16227187 0.059209067 -0.028590295 0.046322204
000050 8c 39 3f bb bc 5d a2 3d 09 93 24 3e 6d 07 d9 3d
       -0.0029178588 0.07928035 0.16071714 0.105971195
000060 9d 27 82 3d 2f a9 d4 3b 00 6a 03 3e 15 09 74 3c
       0.06355212 0.006489895 0.12833405 0.014894743
000070 35 60 a3 3d f6 a2 ed 3d cb 44 a3 bd c3 f1 35 3d
       0.079773344 0.11603348 -0.079721056 0.044420015
000080 50 09 52 bd d7 b6 05 3e 0c 00 01 be d8 e6 87 bd
       -0.051278412 0.13058029 -0.12597674 -0.06635827
000090 9a d5 f2 3d ac bc 14 3d 05 39 27 3d 33 99 df 3d
       0.118571475 0.036312744 0.040825862 0.10917892
0000a0 56 e4 b7 bb 28 e1 f0 bc e6 94 28 3d 51 a1 43 3d
       -0.0056119366 -0.029404238 0.041157626 0.047761265
0000b0 0c e1 bf bc 47 80 0a 3e 72 72 fc bd ec 88 3d bd
       -0.02342274 0.13525496 -0.12326516 -0.046273157
0000c0 bd 43 63 bc 50 90 f5 bd b9 7e 85 bd 1b c0 79 3c
       -0.0138711305 -0.11990416 -0.06518311 0.015243555
0000d0 28 03 f0 3d a8 d9 58 bd ba 59 1b 3d 11 29 47 3e
       0.11719352 -0.05294195 0.037927367 0.1944926
0000e0 a0 3b 5d bd c0 09 53 bd 7f f7 9d 3e da 3d 84 3d
       -0.05401194 -0.05152297 0.30852887 0.0645711
0000f0 74 c6 14 be d9 02 eb 3d 29 15 c5 bd 58 23 2d bc
       -0.14528829 0.114751525 -0.096231766 -0.010567509
000100 35 c2 a3 3d 8a e0 22 3e 3a ce 16 3e 11 a9 80 3e
       0.079960264 0.15905967 0.14727107 0.25128987
000110 ba 7d 7e 3e 53 35 87 bd 70 6f c6 3d 45 ad 1a be
       0.24852648 -0.06601968 0.09689224 -0.1510516
000120 e1 10 ff bd ab d1 e4 3c 03 ed 6f be 86 dd f1 3d
       -0.12454391 0.027932009 -0.23430257 0.1180983
000130 93 9e d2 3d 5b 0f 8a bc e5 54 aa bd b8 f5 c4 3d
       0.10284152 -0.016853025 -0.083169736 0.0961718
000140 10 01 e4 bd 37 32 ad 3b e8 88 ba bd ae 23 e1 3d
       -0.11133015 0.005285527 -0.09108144 0.109931335
000150 6b 66 98 3c 99 f0 cd bd 49 5e 99 bd 45 c5 95 3d
       0.018603524 -0.10055656 -0.074886866 0.07313017
000160 62 3c 3e bd 2f fa 50 3d 91 1c 05 be 92 6a 48 3d
       -0.046444304 0.051019844 -0.12999178 0.04892976
000170 ed ed 94 3d d7 b2 95 3d 78 a1 c3 3d 37 f0 17 3d
       0.07271943 0.073095016 0.09552282 0.03709432
000180 95 2d b6 bd cf c2 ba 3c 64 d5 32 bd 42 03 43 3d
       -0.08895413 0.02279797 -0.043660536 0.04761053
000190 a7 eb e7 3c 4b d7 bc 3d fd f1 0a 3e c5 8c c3 bc
       0.02831061 0.092207514 0.13568874 -0.023870835
0001a0 3c 64 58 3c fd c5 fb 3d fc 05 ec 3d 1a 71 fd bd
       0.0132074915 0.12293623 0.11524579 -0.12375088
0001b0 56 d6 0f bd a3 6d 83 3d fc 2a 37 3e ee d9 5b 3e
       -0.035116516 0.06417396 0.17887491 0.21469852
0001c0 e4 b8 cb 3d 05 3b 05 3e eb cd b3 3d 02 fb 34 3e
       0.099473745 0.13010795 0.0877951 0.17673877
0001d0 d9 81 f2 3c 90 75 0e be 86 d2 5b bd e1 25 6d bc
       0.029602932 -0.13912034 -0.053667568 -0.014474363
0001e0 b8 7b fc 3c b5 bb 6e 3d c5 e8 95 3a 14 3b cb bd
       0.030820712 0.05828448 0.0011437169 -0.09923378
0001f0 f0 cb 35 bd 3e 85 d2 bd 36 17 6b bd db 8a f4 3d
       -0.044383943 -0.1027932 -0.057395183 0.11940547
000200 66 88 dd bd 38 81 ee bb 37 27 31 3e 52 a4 0c 3e
       -0.108170316 -0.0072785877 0.17300116 0.13734558
000210 51 91 9c bc 59 86 fe bc 0f b2 1a be 80 a5 1f 3d
       -0.019112261 -0.031069921 -0.15106986 0.038976192
000220 08 f6 85 bd cc d0 08 bd e6 86 ba 3b 1c 9d 5a bd
       -0.06541067 -0.03340225 0.0056923507 -0.053372487
000230 7e 62 b2 bd 1e 47 9f 3d 37 c4 98 3d 69 b1 d5 3c
       -0.08710192 0.077772364 0.074593 0.026085572
000240 a7 5a 01 be 2e 6a 5a 3d 09 cb cf 3d 42 31 df 3d
       -0.12632237 0.053323917 0.10146148 0.10898067
000250 14 55 ad 3d 23 0f ee 3d ef 67 92 bd 70 a8 a7 bd
       0.08463493 0.11623981 -0.0714873 -0.08186424
000260 4c 49 0b be 6f 2d f1 3d 29 5e 37 bc a5 9e c9 3d
       -0.1360218 0.11776244 -0.011191883 0.09844712
000270 28 60 df ba c9 b9 b7 bd fe ef 98 bd 08 44 a2 3d
       -0.0017042207 -0.089709826 -0.0746765 0.07923132
000280 e9 da 06 3e 6b 3e 92 3d ee aa fc bd 8a 79 c5 3d
       0.13169445 0.071408115 -0.1233729 0.09642322
000290 ee 83 dc 3d d5 31 09 be 52 3a e4 3c c4 f7 e3 3d
       0.10767351 -0.13397916 0.02785984 0.11131242
0002a0 42 9f fd bd 4c 9e 9e 3d 33 84 94 bc b2 8e 91 bd
       -0.12383892 0.077450365 -0.018129444 -0.07107295
0002b0 dc f4 a9 3c a4 a8 2a 3d 8b 0e c6 bd 4f f2 d3 bd
       0.02074664 0.041664734 -0.096707426 -0.10348951
0002c0 8b 56 0b be 36 d6 f7 3c 20 d9 1c 3b be 04 0b 3e
       -0.13607232 0.03025351 0.0023933128 0.13576028
0002d0 d2 a8 61 bd 9e 1a 41 3d ae eb c2 3c e6 02 a2 3c
       -0.05509264 0.047144525 0.023794021 0.019776773
0002e0 24 7e 46 3d 90 ab 06 be 82 b5 f6 3c c0 cf 69 3d
       0.04846014 -0.13151383 0.030115847 0.05708289
0002f0 ea fe f1 3d 95 c4 2f bb 5b d8 45 3d 65 8a 59 3d
       0.11816199 -0.0026820053 0.048302036 0.0531105
000300 52 f1 cb bd a8 75 8b 3c 5c 6b d3 bd 0f 2f de bc
       -0.099581376 0.017023876 -0.103232116 -0.027122049
000310 31 d4 ac bd 18 f4 53 3d b0 5a 00 3e 8d 31 86 bb
       -0.0843891 0.051746458 0.12534595 -0.0040952624
000320 82 08 97 bd 8b 0c e8 bd 0c 6d fe 3d e0 e6 2f 3d
       -0.073746696 -0.113305174 0.12423143 0.04294479
000330 5d a7 fd bc ef 82 fd 3d 13 e3 c2 bd b8 24 ff bd
       -0.030963594 0.12378489 -0.09515967 -0.124581754
000340 1d 43 19 3c 28 d0 95 3d 0f e1 ec bd a9 65 8c bd
       0.00935438 0.07315093 -0.11566364 -0.06855328
000350 e8 0f aa bc ce 8f f9 bd 37 5a 76 bd 3f 10 e6 bc
       -0.020759538 -0.12185632 -0.06014463 -0.028083919
000360 bd 55 9f 3d c1 82 4d 3c 36 58 90 bd 42 e7 1b bd
       0.07780025 0.012543381 -0.07048075 -0.03806234
000370 a6 55 98 3d 01 74 29 3d 11 16 ce 3b dd 62 d2 bd
       0.07438211 0.041370396 0.0062892516 -0.10272763
000380 c6 c6 25 3c 11 9d dd bd 4a aa d3 3c bd 32 7d 3c
       0.010118192 -0.10820974 0.025838036 0.0154539915
000390 c0 59 d0 3d 29 cc ef 3d 58 5b 4a 3d 06 6a 77 3c
       0.101733685 0.11708862 0.04940352 0.015100962
0003a0 20 61 d9 3d a1 2c a6 bd 2e bc a9 bb 7a 8a 8a bd
       0.10614228 -0.08113981 -0.0051799035 -0.067646936
0003b0 ae 3f 20 3d bb 3f 52 3c 17 3b 11 bd b3 6b c3 bc
       0.03912323 0.012832577 -0.035456743 -0.023855066
0003c0 fb 9e 66 3d 60 74 2e 3d b6 49 9c bd fd c2 86 bc
       0.05630396 0.042591453 -0.07631247 -0.0164504
0003d0 46 25 ec 3d f8 2b c1 bc ce f8 af 3c b8 66 a9 bd
       0.11530547 -0.023580536 0.021480944 -0.08271545
0003e0 26 70 9b 3d ac f7 4b 3d 68 a9 36 3d 22 24 f8 bd
       0.0758975 0.049796745 0.044595152 -0.12116267
0003f0 cc c0 33 bd ae c1 a1 3d 78 4a e2 3d 28 11 6d 3d
       -0.043885037 0.078982696 0.1104936 0.05787769

bias f4 [12]
000000 17 95 26 3e f4 c7 14 3e e6 41 e7 3d bf 2a 06 3e
       0.16267811 0.14529401 0.11291866 0.13102244
000010 34 b7 e9 3d 1e cf 92 bd 20 d2 ef bc c9 76 26 3f
       0.11411896 -0.07168411 -0.029275 0.65025
000020 a7 e2 04 3e 54 79 61 bd bf 32 e6 3c a9 71 fe bd
       0.12977086 -0.05504735 0.02810037 -0.12424023

weight f4 [3, 6, 3, 3]
000000 cb 6a c8 3d 7e 51 1a bd 37 5c 57 3d 78 3a 62 bc
       0.09785994 -0.037675373 0.052578177 -0.013807885
000010 69 46 31 bd 6c 82 0e 3c 12 71 76 3d 0d 21 cc 3a
       -0.04328004 0.008698087 0.060166426 0.0015573815
000020 1d 0d 55 bc ba ee e4 3c cb fb e7 bc 90 b4 3d 3d
       -0.013003615 0.027945865 -0.028318306 0.046314776
000030 f0 ca 1b 3e 60 89 a8 3d 3f 03 71 bc 98 9c c7 bd
       0.15214133 0.08229327 -0.014710247 -0.09746665
000040 69 0b 92 3d 78 03 4a bd 7a ee a5 bb fd e0 11 3e
       0.071310826 -0.049319714 -0.005063829 0.14245982
000050 96 f0 bb bd a5 08 46 3e fe 37 37 3e 99 31 db 3d
       -0.091767475 0.19339235 0.17892453 0.107028194
000060 d2 dc f5 3d 95 78 14 3e 6b 7e 5f bd 51 aa a5 3d
       0.12005009 0.14499123 -0.05456392 0.08089126
000070 46 67 c0 bc 18 57 47 3d cf 3d 5d 3d 74 d1 77 3a
       -0.023486745 0.048667043 0.054014023 0.0009453513
000080 ee dc 99 bc f0 2a 7e 3d f7 44 01 be 42 fb 34 bb
       -0.018782105 0.062052667 -0.12623964 -0.0027615582
000090 f1 f1 a2 3d f8 4f ed 3d 4b f2 75 bd b7 89 a8 3a
       0.07956303 0.115875185 -0.06004552 0.0012858425
0000a0 50 35 2d 3e 02 b6 fb 3d e1 ab df bd a6 9e c9 3d
       0.16914868 0.122905746 -0.10921455 0.09844713
0000b0 cb eb 96 bd ce 98 4a bb 0b ff 79 3d 15 e9 a6 3b
       -0.07369193 -0.0030913833 0.061034244 0.0050937035
0000c0 f2 93 5f 3d 76 b6 90 3e a8 d4 24 3e da 3d 24 3d
       0.05458445 0.28264207 0.16096747 0.04009805
0000d0 d0 f8 a7 3d 32 63 e7 3d 29 b4 bc bd 44 8f 3e be
       0.08201754 0.11298217 -0.0921405 -0.18609339
0000e0 21 01 31 bd 64 94 0c be f9 fc 61 be 86 d4 17 be
       -0.043213967 -0.13728482 -0.22069158 -0.14827165
0000f0 02 96 a8 3c 5b 3e c2 bc cc 5b f6 3d 42 35 b7 bd
       0.020579342 -0.023711374 0.120292276 -0.08945705
000100 00 e4 44 3d e4 2a ba bd 74 00 70 3d c1 98 75 3e
       0.048069 -0.09090212 0.058594182 0.23984052
000110 fa 56 30 3e d4 a3 c8 3c 7b 18 87 3d ae e8 41 bc
       0.17220679 0.024492182 0.06596466 -0.01183526
000120 0b c7 0a be 9c 60 8c bc fd 74 ff bc da 57 0e bd
       -0.13552491 -0.01713591 -0.031183714 -0.03475175
000130 9c 94 51 3d 1e 16 19 bd 21 67 87 3d 4c 27 c2 3c
       0.051167116 -0.03737461 0.06611467 0.023700379
000140 a9 1b cf ba 65 92 ba 3d d1 4e 16 be 28 b8 aa bd
       -0.001580109 0.09109954 -0.14678504 -0.08335906
000150 59 1e 2a be a6 d2 c1 bc e5 26 7d 3c 77 2e 90 bb
       -0.16613139 -0.023660015 0.015451168 -0.0044000703
000160 02 95 ac bd d8 19 f7 bd 87 83 f9 3c 07 fe 1f 3c
       -0.084268585 -0.12065476 0.030458225 0.009765155
000170 45 25 d5 bd 48 7d a3 3d 06 63 d6 3d e0 bf a0 bc
       -0.10407499 0.0798288 0.10468106 -0.019622743
000180 62 2d 15 be 8d f1 19 3e 81 a1 ff bc 72 17 d5 bb
       -0.14568093 0.1503355 -0.03120494 -0.006503039
000190 e8 a5 ba 3d ff 11 cf 3c 72 f3 04 3d 28 d8 83 3e
       0.09113675 0.025277136 0.03245873 0.25750852
0001a0 e5 f6 0f 3e 2a 4f a7 bd 37 ae 6e bd 59 0d d9 bd
       0.14059027 -0.08169396 -0.058271613 -0.10598249
0001b0 cf c4 6e 3d 7a ca 71 bd d5 d2 5c 3c 6b b5 5c be
       0.05829316 -0.059030987 0.013478001 -0.2155358
0001c0 04 70 5e be 2a 75 ee bc ae 6a 99 bd 96 01 39 be
       -0.21722418 -0.029108603 -0.07491051 -0.18067011
0001d0 9a c3 e4 bd d0 db c7 bd 86 7e ff 3d a2 57 40 3d
       -0.111701205 -0.09758723 0.12475304 0.046958573
0001e0 32 29 77 3d 80 cb 37 3e 2e 00 d2 bc dd 43 37 be
       0.06034202 0.17948723 -0.025634851 -0.17896982
0001f0 7b 1e f5 3d bb ee b1 bc a8 48 0f bd 0a 76 ce bc
       0.11968704 -0.02172028 -0.0349814 -0.02520277
000200 67 0a 36 3d 6e 71 3f 3e 3a 88 ee 3d cc db cb 3d
       0.044443514 0.18695614 0.11647077 0.09954032
000210 86 d4 b2 3d fb 14 73 bc 61 b3 91 3d 5c 9f 54 3d
       0.08731942 -0.014836545 0.07114292 0.05190979
000220 f6 ce b1 bd 5b 63 61 bd 2c 62 9c bc c6 14 9a bd
       -0.08682053 -0.055026393 -0.01908978 -0.075234935
000230 66 7d 93 bc f8 af 25 3d c1 a2 dd bd b7 ae 7c bc
       -0.01800413 0.04045102 -0.108220585 -0.015422515
000240 9e e2 16 3d 62 63 5e bd 99 b9 bf bd 33 a3 06 3d
       0.036837213 -0.054293998 -0.09361572 0.032870483
000250 f9 b5 40 3e 91 29 7d bc 62 43 f5 bd 68 b1 45 bd
       0.18819417 -0.015451805 -0.11975743 -0.04826489
000260 27 f0 4c bd e2 3e de 3d 28 e7 66 bb 2f 01 08 3c
       -0.050033715 0.10851838 -0.0035232995 0.008301063
000270 83 e9 e8 3c f3 c3 a2 3d 8f e4 8e 3d b8 db a0 3d
       0.02843166 0.079475306 0.06977188 0.07854408
000280 c4 7b 14 3e c8 e1 18 be
       0.14500338 -0.14929879

bias f4 [3]
000000 a1 0c bd 3d 54 d7 8f 3c 1e 8f d0 3d
       0.092309244 0.017558731 0.101835474
